saved_models/quantized_ptq_model.tflite (tflite, 814256 bytes, 18 tensors)

model_2/binary_classification_out/MatMul i1 [1, 128] scale=0.0016800165 zero_point=0
0	0xd3	-0.07560074
1	0x00	0.0
2	0x14	0.03360033
3	0x8a	-0.19824195
4	0x5e	0.15792155
5	0x2d	0.07560074
6	0x26	0.06384063
7	0x5b	0.1528815
8	0xc5	-0.099120975
9	0xa2	-0.15792155
10	0xad	-0.13944137
11	0x1a	0.04368043
12	0x64	0.16800165
13	0x1b	0.045360446
14	0x08	0.013440132
15	0xc2	-0.104161024
16	0xcb	-0.089040875
17	0x70	0.18816185
18	0xf9	-0.011760116
19	0x9f	-0.1629616
20	0x2c	0.07392073
21	0x23	0.058800578
22	0x71	0.18984187
23	0x48	0.12096119
24	0x9d	-0.16632164
25	0xac	-0.14112139
26	0x8c	-0.19488192
27	0x23	0.058800578
28	0xc8	-0.094080925
29	0x4a	0.12432122
30	0xfc	-0.006720066
31	0x02	0.003360033
32	0xf1	-0.025200248
33	0x0c	0.020160198
34	0xb2	-0.13104129
35	0x37	0.09240091
36	0xa3	-0.15624154
37	0xc8	-0.094080925
38	0xfe	-0.003360033
39	0x85	-0.20664203
40	0xc1	-0.10584104
41	0x45	0.11592114
42	0x29	0.06888068
43	0x8c	-0.19488192
44	0xb4	-0.12768126
45	0x81	-0.2133621
46	0xe7	-0.042000413
47	0xa9	-0.14616144
48	0xb5	-0.12600124
49	0x9d	-0.16632164
50	0x41	0.10920107
51	0xa0	-0.16128159
52	0x71	0.18984187
53	0x51	0.13608134
54	0x68	0.17472172
55	0xfc	-0.006720066
56	0x53	0.13944137
57	0xa2	-0.15792155
58	0x12	0.030240297
59	0x6c	0.18144178
60	0x66	0.17136168
61	0xfb	-0.008400083
62	0xbc	-0.11424112
63	0x96	-0.17808175
64	0x1e	0.050400496
65	0x2a	0.070560694
66	0x62	0.16464162
67	0xcd	-0.08568084
68	0x81	-0.2133621
69	0x28	0.06720066
70	0x6c	0.18144178
71	0xb5	-0.12600124
72	0xda	-0.06384063
73	0x05	0.008400083
74	0xe2	-0.050400496
75	0x81	-0.2133621
76	0xe2	-0.050400496
77	0xf9	-0.011760116
78	0xc6	-0.09744096
79	0xf7	-0.015120149
80	0x63	0.16632164
81	0xaa	-0.14448142
82	0xa2	-0.15792155
83	0xab	-0.1428014
84	0x92	-0.18480182
85	0x2f	0.07896078
86	0x91	-0.18648183
87	0x0b	0.018480182
88	0x3c	0.10080099
89	0x97	-0.17640173
90	0x24	0.060480595
91	0x3a	0.09744096
92	0x48	0.12096119
93	0x75	0.19656193
94	0x76	0.19824195
95	0xd4	-0.07392073
96	0x54	0.14112139
97	0x0a	0.016800165
98	0x3a	0.09744096
99	0x0d	0.021840215
100	0x2a	0.070560694
101	0x19	0.042000413
102	0xc7	-0.09576094
103	0x81	-0.2133621
104	0xaa	-0.14448142
105	0x04	0.006720066
106	0xbb	-0.11592114
107	0x96	-0.17808175
108	0x78	0.20160198
109	0x4b	0.12600124
110	0xdd	-0.058800578
111	0x5b	0.1528815
112	0x11	0.02856028
113	0xae	-0.13776135
114	0x05	0.008400083
115	0x27	0.065520644
116	0xd0	-0.08064079
117	0xb1	-0.1327213
118	0x93	-0.1831218
119	0x3e	0.104161024
120	0xa1	-0.15960157
121	0x65	0.16968167
122	0x5e	0.15792155
123	0x92	-0.18480182
124	0x5f	0.15960157
125	0x23	0.058800578
126	0x0b	0.018480182
127	0xd0	-0.08064079

model_2/classification_mlp_0_128/MatMul i1 [128, 289] scale=0.0009444762 zero_point=0
0	0xe7	-0.023611905
1	0x5e	0.08878077
2	0xdb	-0.034945622
3	0xb2	-0.07366914
4	0x62	0.09255867
5	0xaa	-0.081224956
6	0x6d	0.102947906
7	0x3f	0.059502
8	0x93	-0.102947906
9	0x97	-0.09917001
10	0x4c	0.07178019
11	0xdd	-0.03305667
12	0x44	0.064224385
13	0xcd	-0.048168287
14	0xb2	-0.07366914
15	0xb0	-0.075558096
16	0x7d	0.11805953
17	0xa6	-0.08500286
18	0x6a	0.10011448
19	0x39	0.053835146
20	0x2f	0.044390384
21	0xcd	-0.048168287
22	0xee	-0.017000573
23	0x14	0.018889524
24	0x6a	0.10011448
25	0x2a	0.039668
26	0x8c	-0.109559245
27	0x4a	0.069891244
28	0x43	0.063279904
29	0x3e	0.058557525
30	0xc5	-0.055724096
31	0x44	0.064224385
32	0xff	-0.0009444762
33	0x3a	0.054779623
34	0x41	0.061390955
35	0x85	-0.11617058
36	0xf7	-0.008500286
37	0xa7	-0.08405838
38	0x7c	0.11711505
39	0x9b	-0.0953921
40	0x26	0.035890095
41	0x7b	0.11617058
42	0x38	0.05289067
43	0xf2	-0.013222667
44	0xc5	-0.055724096
45	0x95	-0.10105895
46	0x62	0.09255867
47	0x83	-0.11805953
48	0xf3	-0.012278191
49	0x28	0.037779048
50	0x3d	0.05761305
51	0x3a	0.054779623
52	0xc9	-0.051946193
53	0xda	-0.035890095
54	0xd0	-0.04533486
55	0x77	0.11239267
56	0x92	-0.103892386
57	0xae	-0.07744705
58	0x9e	-0.09255867
59	0xd0	-0.04533486
60	0x77	0.11239267
61	0xd7	-0.038723525
62	0x87	-0.114281625
63	0x98	-0.09822553
64	0xb5	-0.07083572
65	0x4f	0.07461362
66	0x16	0.020778477
67	0x92	-0.103892386
68	0x8e	-0.10767029
69	0xc0	-0.06044648
70	0xfc	-0.003777905
71	0x08	0.00755581
72	0xa8	-0.08311391
73	0x3b	0.055724096
74	0x30	0.04533486
75	0x92	-0.103892386
76	0x02	0.0018889525
77	0x71	0.10672581
78	0x7e	0.119004
79	0x36	0.051001716
80	0xa7	-0.08405838
81	0x35	0.05005724
82	0x50	0.075558096
83	0x16	0.020778477
84	0x35	0.05005724
85	0x1c	0.026445335
86	0x53	0.07839153
87	0xb4	-0.07178019
88	0x74	0.109559245
89	0xf2	-0.013222667
90	0x6d	0.102947906
91	0xad	-0.07839153
92	0xcd	-0.048168287
93	0x27	0.03683457
94	0xcc	-0.049112763
95	0x87	-0.114281625
96	0x2a	0.039668
97	0x4a	0.069891244
98	0xa4	-0.086891815
99	0x71	0.10672581
100	0xf6	-0.009444762
101	0xa1	-0.08972524
102	0x17	0.021722954
103	0xec	-0.018889524
104	0x29	0.038723525
105	0x5f	0.08972524
106	0x90	-0.10578134
107	0xe9	-0.021722954
108	0xe5	-0.025500858
109	0xc6	-0.054779623
110	0x4d	0.07272467
111	0xae	-0.07744705
112	0xa4	-0.086891815
113	0xfe	-0.0018889525
114	0xa2	-0.08878077
115	0x19	0.023611905
116	0xd8	-0.037779048
117	0x0a	0.009444762
118	0xe1	-0.029278763
119	0x04	0.003777905
120	0xdf	-0.031167716
121	0x3e	0.058557525
122	0xdd	-0.03305667
123	0x5e	0.08878077
124	0x66	0.09633657
125	0xf7	-0.008500286
126	0xdf	-0.031167716
127	0x3c	0.056668572
128	0x66	0.09633657
129	0xa9	-0.08216943
130	0x79	0.114281625
131	0x4b	0.07083572
132	0xc1	-0.059502
133	0x45	0.06516886
134	0x66	0.09633657
135	0xd0	-0.04533486
136	0xfd	-0.0028334288
137	0x71	0.10672581
138	0x02	0.0018889525
139	0xec	-0.018889524
140	0xb4	-0.07178019
141	0x97	-0.09917001
142	0x25	0.034945622
143	0x6e	0.103892386
144	0xb8	-0.06800229
145	0x85	-0.11617058
146	0xc9	-0.051946193
147	0xbe	-0.06233543
148	0x8a	-0.11144819
149	0x36	0.051001716
150	0x98	-0.09822553
151	0xdc	-0.034001146
152	0x17	0.021722954
153	0xd7	-0.038723525
154	0x18	0.02266743
155	0x62	0.09255867
156	0x0f	0.014167143
157	0x52	0.07744705
158	0xc9	-0.051946193
159	0x24	0.034001146
160	0xb7	-0.068946764
161	0x46	0.06611334
162	0x42	0.06233543
163	0x39	0.053835146
164	0xc0	-0.06044648
165	0x3c	0.056668572
166	0x0f	0.014167143
167	0x62	0.09255867
168	0x44	0.064224385
169	0x3d	0.05761305
170	0x6a	0.10011448
171	0x37	0.051946193
172	0x37	0.051946193
173	0x24	0.034001146
174	0x2a	0.039668
175	0xc5	-0.055724096
176	0xcd	-0.048168287
177	0xd6	-0.039668
178	0x91	-0.10483686
179	0x8d	-0.108614765
180	0x3c	0.056668572
181	0x62	0.09255867
182	0xd5	-0.040612478
183	0x4e	0.07366914
184	0xf9	-0.0066113337
185	0xb5	-0.07083572
186	0x4c	0.07178019
187	0xa2	-0.08878077
188	0xaa	-0.081224956
189	0xb3	-0.07272467
190	0x9b	-0.0953921
191	0x5a	0.08500286
192	0xf3	-0.012278191
193	0x54	0.079336
194	0x9a	-0.09633657
195	0x52	0.07744705
196	0xb7	-0.068946764
197	0x7c	0.11711505
198	0xc6	-0.054779623
199	0xde	-0.032112192
200	0x56	0.081224956
201	0x0f	0.014167143
202	0x56	0.081224956
203	0x1b	0.025500858
204	0xbd	-0.063279904
205	0xb4	-0.07178019
206	0x3b	0.055724096
207	0xa7	-0.08405838
208	0x98	-0.09822553
209	0x1a	0.024556382
210	0x7e	0.119004
211	0x12	0.017000573
212	0xe0	-0.03022324
213	0x85	-0.11617058
214	0x70	0.10578134
215	0xb0	-0.075558096
216	0x8b	-0.11050372
217	0xa6	-0.08500286
218	0x0f	0.014167143
219	0x90	-0.10578134
220	0xf6	-0.009444762
221	0x8c	-0.109559245
222	0xa6	-0.08500286
223	0xab	-0.08028048
224	0xa6	-0.08500286
225	0xe4	-0.026445335
226	0x48	0.06800229
227	0x3a	0.054779623
228	0x5c	0.086891815
229	0x95	-0.10105895
230	0xb3	-0.07272467
231	0xb6	-0.069891244
232	0xaa	-0.081224956
233	0xc0	-0.06044648
234	0x5b	0.085947335
235	0xdd	-0.03305667
236	0xb8	-0.06800229
237	0x30	0.04533486
238	0xd0	-0.04533486
239	0xa4	-0.086891815
240	0x54	0.079336
241	0x97	-0.09917001
242	0xb2	-0.07366914
243	0x4a	0.069891244
244	0x5b	0.085947335
245	0x96	-0.10011448
246	0xb0	-0.075558096
247	0x0a	0.009444762
248	0xf3	-0.012278191
249	0xcc	-0.049112763
250	0x51	0.07650258
251	0x4f	0.07461362
252	0x28	0.037779048
253	0x6d	0.102947906
254	0xc2	-0.058557525
255	0x25	0.034945622

model_2/block_1_/dense_7/Tensordot/MatMul i1 [289, 128] scale=0.00094450236 zero_point=0
0	0x95	-0.101061754
1	0xab	-0.0802827
2	0x59	0.08406071
3	0x49	0.06894867
4	0x8c	-0.10956227
5	0x26	0.03589109
6	0xc9	-0.05194763
7	0x17	0.021723554
8	0x51	0.07650469
9	0x27	0.036835592
10	0x8c	-0.10956227
11	0xa0	-0.090672225
12	0xc6	-0.054781135
13	0x78	0.11334028
14	0x40	0.06044815
15	0xf6	-0.009445024
16	0x88	-0.11334028
17	0xd2	-0.043447107
18	0xc3	-0.057614643
19	0x89	-0.11239578
20	0x10	0.015112038
21	0x9d	-0.09350573
22	0x70	0.10578427
23	0x93	-0.10295076
24	0xf2	-0.013223033
25	0x1b	0.025501564
26	0x2b	0.040613603
27	0x84	-0.11711829
28	0xb4	-0.07178218
29	0x53	0.0783937
30	0x79	0.11428478
31	0xe3	-0.027390568
32	0xbf	-0.061392654
33	0x52	0.077449195
34	0x18	0.022668056
35	0xc6	-0.054781135
36	0x8b	-0.11050677
37	0x73	0.108617775
38	0x7a	0.115229286
39	0xbc	-0.06422616
40	0x75	0.11050677
41	0x2f	0.04439161
42	0xbe	-0.062337156
43	0xc9	-0.05194763
44	0x3b	0.055725638
45	0xe2	-0.02833507
46	0x6c	0.10200626
47	0xee	-0.017001042
48	0x6a	0.10011725
49	0x2c	0.041558105
50	0x47	0.067059666
51	0x9c	-0.094450235
52	0x38	0.052892134
53	0x88	-0.11334028
54	0x6e	0.10389526
55	0x5a	0.08500521
56	0xd2	-0.043447107
57	0xdc	-0.034002084
58	0x64	0.094450235
59	0x2c	0.041558105
60	0xcc	-0.049114123
61	0xf1	-0.014167535
62	0xf6	-0.009445024
63	0xdf	-0.031168578
64	0xba	-0.06611516
65	0x53	0.0783937
66	0xa2	-0.08878322
67	0xc6	-0.054781135
68	0x53	0.0783937
69	0x31	0.046280615
70	0xe3	-0.027390568
71	0x8f	-0.10672877
72	0x42	0.062337156
73	0xf7	-0.008500521
74	0x8c	-0.10956227
75	0x90	-0.10578427
76	0xc0	-0.06044815
77	0xd1	-0.04439161
78	0xb6	-0.069893174
79	0xc1	-0.05950365
80	0x15	0.01983455
81	0xd0	-0.045336112
82	0x66	0.09633924
83	0xbe	-0.062337156
84	0x91	-0.104839765
85	0x10	0.015112038
86	0x06	0.005667014
87	0x65	0.09539474
88	0xed	-0.017945545
89	0x9d	-0.09350573
90	0x28	0.037780095
91	0x1a	0.024557061
92	0x4b	0.07083768
93	0xec	-0.018890047
94	0xa4	-0.086894214
95	0xaa	-0.081227206
96	0x62	0.09256123
97	0xa1	-0.08972772
98	0x45	0.06517066
99	0x6a	0.10011725
100	0xaa	-0.081227206
101	0x8f	-0.10672877
102	0x1a	0.024557061
103	0x1d	0.027390568
104	0x0d	0.012278531
105	0x8b	-0.11050677
106	0xa3	-0.08783872
107	0xae	-0.077449195
108	0x41	0.061392654
109	0x17	0.021723554
110	0x76	0.111451276
111	0x3b	0.055725638
112	0x0e	0.013223033
113	0x03	0.002833507
114	0xaa	-0.081227206
115	0x05	0.004722512
116	0xc6	-0.054781135
117	0x98	-0.098228246
118	0x91	-0.104839765
119	0xdd	-0.03305758
120	0x12	0.017001042
121	0x4c	0.07178218
122	0xec	-0.018890047
123	0xd9	-0.036835592
124	0x0d	0.012278531
125	0x0c	0.011334028
126	0xc5	-0.055725638
127	0xe5	-0.025501564
128	0x21	0.031168578
129	0x5d	0.08783872
130	0xa2	-0.08878322
131	0x7e	0.1190073
132	0x13	0.017945545
133	0x39	0.053836636
134	0x81	-0.1199518
135	0x5f	0.08972772
136	0x3e	0.058559146
137	0xd3	-0.042502604
138	0xd4	-0.041558105
139	0x15	0.01983455
140	0x7f	0.1199518
141	0xe1	-0.029279573
142	0x49	0.06894867
143	0x3c	0.05667014
144	0x97	-0.09917275
145	0xe3	-0.027390568
146	0x47	0.067059666
147	0x97	-0.09917275
148	0xb9	-0.067059666
149	0xfb	-0.004722512
150	0xcf	-0.046280615
151	0x07	0.0066115167
152	0x44	0.06422616
153	0x36	0.05100313
154	0xd0	-0.045336112
155	0x06	0.005667014
156	0x88	-0.11334028
157	0x66	0.09633924
158	0x06	0.005667014
159	0x99	-0.09728374
160	0x6d	0.10295076
161	0x0c	0.011334028
162	0xe1	-0.029279573
163	0xd7	-0.038724598
164	0x8c	-0.10956227
165	0x26	0.03589109
166	0x04	0.0037780094
167	0xa8	-0.08311621
168	0xc0	-0.06044815
169	0xd6	-0.0396691
170	0xe6	-0.024557061
171	0x39	0.053836636
172	0x0e	0.013223033
173	0xdf	-0.031168578
174	0x4a	0.069893174
175	0x8a	-0.111451276
176	0x75	0.11050677
177	0x6f	0.104839765
178	0x56	0.081227206
179	0x17	0.021723554
180	0x76	0.111451276
181	0x81	-0.1199518
182	0x44	0.06422616
183	0xa6	-0.08500521
184	0x40	0.06044815
185	0x66	0.09633924
186	0xd9	-0.036835592
187	0xb0	-0.07556019
188	0xe1	-0.029279573
189	0x6f	0.104839765
190	0xa3	-0.08783872
191	0x4b	0.07083768
192	0x66	0.09633924
193	0x05	0.004722512
194	0x95	-0.101061754
195	0x20	0.030224076
196	0xb2	-0.073671184
197	0x54	0.0793382
198	0xe5	-0.025501564
199	0xe7	-0.023612559
200	0xe3	-0.027390568
201	0x0f	0.014167535
202	0x12	0.017001042
203	0xeb	-0.01983455
204	0x9d	-0.09350573
205	0x52	0.077449195
206	0x07	0.0066115167
207	0x68	0.098228246
208	0x76	0.111451276
209	0x84	-0.11711829
210	0x5e	0.08878322
211	0x5f	0.08972772
212	0x62	0.09256123
213	0x47	0.067059666
214	0xda	-0.03589109
215	0x6a	0.10011725
216	0x26	0.03589109
217	0x38	0.052892134
218	0xe3	-0.027390568
219	0x02	0.0018890047
220	0x35	0.050058626
221	0xb9	-0.067059666
222	0x9e	-0.09256123
223	0xee	-0.017001042
224	0x39	0.053836636
225	0x4f	0.07461569
226	0x1e	0.02833507
227	0x3c	0.05667014
228	0x50	0.07556019
229	0xa7	-0.08406071
230	0x38	0.052892134
231	0x3a	0.054781135
232	0x79	0.11428478
233	0x4f	0.07461569
234	0x1e	0.02833507
235	0xb6	-0.069893174
236	0x61	0.09161673
237	0x41	0.061392654
238	0x45	0.06517066
239	0x75	0.11050677
240	0x89	-0.11239578
241	0x9b	-0.09539474
242	0x23	0.03305758
243	0x55	0.0802827
244	0x55	0.0802827
245	0x16	0.020779053
246	0xc0	-0.06044815
247	0x72	0.10767327
248	0x04	0.0037780094
249	0x01	0.00094450236
250	0xfa	-0.005667014
251	0xd1	-0.04439161
252	0xc3	-0.057614643
253	0x3f	0.05950365
254	0xb7	-0.06894867
255	0x46	0.06611516

model_2/block_1_/dense_6/Tensordot/MatMul i1 [128, 289] scale=0.000944474 zero_point=0
0	0x1b	0.025500799
1	0x9d	-0.093502924
2	0xcc	-0.049112648
3	0x5e	0.08878056
4	0x92	-0.10389214
5	0x66	0.09633635
6	0xbd	-0.063279755
7	0x4e	0.07366897
8	0xd6	-0.039667908
9	0xb6	-0.06989108
10	0x0c	0.011333688
11	0x33	0.048168175
12	0xc0	-0.060446337
13	0xe1	-0.029278694
14	0xd1	-0.04439028
15	0xbb	-0.06516871
16	0x4a	0.06989108
17	0x0e	0.013222637
18	0xf0	-0.015111584
19	0x8c	-0.109558985
20	0xad	-0.07839134
21	0x84	-0.117114775
22	0x4c	0.071780026
23	0xd2	-0.043445803
24	0xe2	-0.02833422
25	0xeb	-0.019833954
26	0x44	0.064224236
27	0x66	0.09633635
28	0x5e	0.08878056
29	0xfb	-0.00472237
30	0x5b	0.08594713
31	0x21	0.031167643
32	0x34	0.049112648
33	0xb8	-0.06800213
34	0xa2	-0.08878056
35	0x8b	-0.11050346
36	0xa0	-0.090669505
37	0x88	-0.11333688
38	0xa1	-0.08972503
39	0xe8	-0.022667376
40	0xc1	-0.059501864
41	0x03	0.002833422
42	0x79	0.11428136
43	0x65	0.09539188
44	0x1b	0.025500799
45	0xbc	-0.064224236
46	0x98	-0.098225296
47	0x3a	0.054779492
48	0x88	-0.11333688
49	0x38	0.052890547
50	0x65	0.09539188
51	0x07	0.0066113183
52	0xaf	-0.0765024
53	0xa1	-0.08972503
54	0x2c	0.041556858
55	0xc1	-0.059501864
56	0x26	0.035890013
57	0x83	-0.118059255
58	0x8e	-0.10767004
59	0x4a	0.06989108
60	0x4c	0.071780026
61	0x21	0.031167643
62	0x20	0.030223168
63	0xef	-0.016056059
64	0x0d	0.012278162
65	0xb0	-0.07555792
66	0xb4	-0.071780026
67	0xa3	-0.08783609
68	0x8c	-0.109558985
69	0xf3	-0.012278162
70	0x3c	0.05666844
71	0x19	0.023611851
72	0xe7	-0.023611851
73	0x20	0.030223168
74	0x24	0.034001064
75	0x19	0.023611851
76	0xe0	-0.030223168
77	0x86	-0.11522583
78	0xe4	-0.026445273
79	0x47	0.067057654
80	0x12	0.017000532
81	0x3c	0.05666844
82	0x0c	0.011333688
83	0x06	0.005666844
84	0x59	0.08405819
85	0xd2	-0.043445803
86	0x98	-0.098225296
87	0x99	-0.09728082
88	0xbd	-0.063279755
89	0xd7	-0.038723435
90	0x09	0.008500266
91	0xa0	-0.090669505
92	0xea	-0.020778429
93	0x54	0.079335816
94	0x3b	0.055723965
95	0x74	0.109558985
96	0xa4	-0.08689161
97	0x25	0.03494554
98	0x5f	0.08972503
99	0x39	0.05383502
100	0xd7	-0.038723435
101	0x07	0.0066113183
102	0xb8	-0.06800213
103	0x5d	0.08783609
104	0x76	0.11144793
105	0x73	0.10861451
106	0x5f	0.08972503
107	0x4b	0.07083555
108	0x20	0.030223168
109	0x63	0.093502924
110	0x27	0.036834486
111	0x99	-0.09728082
112	0xeb	-0.019833954
113	0x84	-0.117114775
114	0x27	0.036834486
115	0xd4	-0.041556858
116	0x89	-0.11239241
117	0x78	0.11333688
118	0xb9	-0.067057654
119	0xd0	-0.045334753
120	0xae	-0.07744687
121	0x36	0.051001597
122	0xab	-0.08028029
123	0x22	0.032112118
124	0x4c	0.071780026
125	0x72	0.10767004
126	0x11	0.016056059
127	0x24	0.034001064
128	0x68	0.098225296
129	0x60	0.090669505
130	0x9c	-0.094447404
131	0xd0	-0.045334753
132	0xe5	-0.025500799
133	0xce	-0.047223702
134	0xa5	-0.08594713
135	0xe0	-0.030223168
136	0xa4	-0.08689161
137	0xca	-0.051001597
138	0xe4	-0.026445273
139	0x6e	0.10389214
140	0xe9	-0.021722902
141	0xd3	-0.04250133
142	0x2f	0.04439028
143	0x37	0.05194607
144	0x86	-0.11522583
145	0x31	0.046279225
146	0x40	0.060446337
147	0xec	-0.01888948
148	0xce	-0.047223702
149	0x8a	-0.11144793
150	0xfb	-0.00472237
151	0xb3	-0.0727245
152	0xd1	-0.04439028
153	0xeb	-0.019833954
154	0xbd	-0.063279755
155	0xdd	-0.03305659
156	0x39	0.05383502
157	0x99	-0.09728082
158	0x59	0.08405819
159	0xae	-0.07744687
160	0x8e	-0.10767004
161	0xcc	-0.049112648
162	0x92	-0.10389214
163	0xb5	-0.07083555
164	0x01	0.000944474
165	0x92	-0.10389214
166	0xc6	-0.054779492
167	0xba	-0.06611318
168	0xb3	-0.0727245
169	0x41	0.06139081
170	0xa6	-0.08500266
171	0xf3	-0.012278162
172	0x4b	0.07083555
173	0x1b	0.025500799
174	0x3a	0.054779492
175	0xd1	-0.04439028
176	0x4a	0.06989108
177	0xb1	-0.074613445
178	0xc1	-0.059501864
179	0x1a	0.024556324
180	0x07	0.0066113183
181	0x29	0.038723435
182	0x4d	0.0727245
183	0xfd	-0.002833422
184	0x58	0.083113715
185	0x5d	0.08783609
186	0xbe	-0.062335286
187	0x5f	0.08972503
188	0x08	0.007555792
189	0x33	0.048168175
190	0xec	-0.01888948
191	0x1d	0.027389746
192	0xd1	-0.04439028
193	0x12	0.017000532
194	0x24	0.034001064
195	0x43	0.063279755
196	0x5a	0.08500266
197	0xaf	-0.0765024
198	0x90	-0.10578109
199	0x19	0.023611851
200	0xdb	-0.03494554
201	0xbb	-0.06516871
202	0xba	-0.06611318
203	0x0f	0.01416711
204	0x24	0.034001064
205	0x28	0.03777896
206	0x2c	0.041556858
207	0x1c	0.026445273
208	0x91	-0.10483661
209	0xee	-0.017000532
210	0xd8	-0.03777896
211	0x87	-0.11428136
212	0x96	-0.10011425
213	0xda	-0.035890013
214	0xcf	-0.046279225
215	0x2f	0.04439028
216	0x2f	0.04439028
217	0x46	0.06611318
218	0xed	-0.017945006
219	0x12	0.017000532
220	0x6a	0.10011425
221	0xc8	-0.052890547
222	0xa2	-0.08878056
223	0x0c	0.011333688
224	0x0d	0.012278162
225	0x2a	0.039667908
226	0x45	0.06516871
227	0x16	0.020778429
228	0xdc	-0.034001064
229	0xf7	-0.008500266
230	0x51	0.0765024
231	0x89	-0.11239241
232	0x09	0.008500266
233	0x73	0.10861451
234	0xb6	-0.06989108
235	0x03	0.002833422
236	0xc9	-0.05194607
237	0x9e	-0.09255845
238	0xa6	-0.08500266
239	0x69	0.09916977
240	0x8d	-0.10861451
241	0x84	-0.117114775
242	0x5a	0.08500266
243	0xf1	-0.01416711
244	0x98	-0.098225296
245	0x10	0.015111584
246	0x27	0.036834486
247	0x06	0.005666844
248	0x92	-0.10389214
249	0xf1	-0.01416711
250	0x96	-0.10011425
251	0x36	0.051001597
252	0x41	0.06139081
253	0x8c	-0.109558985
254	0xaa	-0.08122476
255	0x03	0.002833422

model_2/block_1_/multi_head_attention/attention_output/einsum/Einsum i1 [256, 289] scale=0.000665243 zero_point=-1
0	0x9d	-0.06519382
1	0x37	0.03725361
2	0xfe	-0.000665243
3	0x22	0.023283506
4	0x27	0.02660972
5	0x78	0.080494404
6	0xe6	-0.016631076
7	0xfe	-0.000665243
8	0x56	0.057876144
9	0x50	0.053884685
10	0x5c	0.061867602
11	0x80	-0.084485866
12	0x42	0.04457128
13	0x8d	-0.0758377
14	0x09	0.00665243
15	0x56	0.057876144
16	0xc7	-0.03725361
17	0x5f	0.06386333
18	0x12	0.012639618
19	0x3f	0.042575553
20	0xcc	-0.033927392
21	0x35	0.035923123
22	0x41	0.04390604
23	0x09	0.00665243
24	0xcd	-0.033262152
25	0xbd	-0.04390604
26	0xc1	-0.041245066
27	0x6e	0.073841974
28	0x04	0.003326215
29	0x68	0.06985052
30	0x25	0.025279235
31	0x16	0.01530059
32	0x17	0.015965832
33	0x3a	0.03924934
34	0xc5	-0.038584094
35	0x3c	0.040579826
36	0x50	0.053884685
37	0xbe	-0.043240797
38	0x14	0.013970103
39	0xab	-0.055880412
40	0xe2	-0.019292047
41	0xe5	-0.017296318
42	0xc4	-0.03924934
43	0x26	0.025944477
44	0x86	-0.080494404
45	0x8c	-0.07650295
46	0x20	0.02195302
47	0xe3	-0.018626805
48	0x35	0.035923123
49	0xb1	-0.051888954
50	0xfb	-0.002660972
51	0x58	0.059206627
52	0xf3	-0.007982916
53	0x31	0.033262152
54	0x24	0.024613991
55	0xfb	-0.002660972
56	0x70	0.07517246
57	0xae	-0.053884685
58	0xf1	-0.009313403
59	0x3d	0.041245066
60	0x3d	0.041245066
61	0x40	0.043240797
62	0xa0	-0.06319809
63	0x4c	0.051223714
64	0x20	0.02195302
65	0x12	0.012639618
66	0x24	0.024613991
67	0x88	-0.07916392
68	0x3c	0.040579826
69	0x88	-0.07916392
70	0x4c	0.051223714
71	0x39	0.038584094
72	0x0e	0.0099786455
73	0x4b	0.05055847
74	0xb4	-0.049893226
75	0x94	-0.071181
76	0x0d	0.009313403
77	0x57	0.058541387
78	0x91	-0.073176734
79	0x3a	0.03924934
80	0xb1	-0.051888954
81	0x9d	-0.06519382
82	0xba	-0.045901768
83	0x68	0.06985052
84	0xb6	-0.04856274
85	0x95	-0.07051576
86	0xaa	-0.056545656
87	0x42	0.04457128
88	0xc7	-0.03725361
89	0x48	0.04856274
90	0x2e	0.03126642
91	0xd3	-0.029270694
92	0x09	0.00665243
93	0x30	0.03259691
94	0x16	0.01530059
95	0xb0	-0.052554198
96	0x74	0.07783344
97	0x7a	0.08182489
98	0x1b	0.018626805
99	0x76	0.07916392
100	0xc3	-0.039914582
101	0xf9	-0.003991458
102	0x7e	0.084485866
103	0x3e	0.04191031
104	0x51	0.05454993
105	0xd5	-0.027940206
106	0x85	-0.08115965
107	0x64	0.067189544
108	0x0d	0.009313403
109	0x62	0.06585906
110	0xe7	-0.015965832
111	0xb3	-0.05055847
112	0xe5	-0.017296318
113	0x29	0.027940206
114	0x54	0.056545656
115	0x1b	0.018626805
116	0x40	0.043240797
117	0x89	-0.07849868
118	0x8b	-0.07716819
119	0x6b	0.07184625
120	0xb8	-0.047232255
121	0x17	0.015965832
122	0x27	0.02660972
123	0xf8	-0.0046567013
124	0x45	0.04656701
125	0x1e	0.020622533
126	0xf7	-0.005321944
127	0x8e	-0.07517246
128	0x90	-0.073841974
129	0x9d	-0.06519382
130	0x78	0.080494404
131	0x66	0.06852003
132	0x49	0.049227983
133	0x5b	0.06120236
134	0xe0	-0.020622533
135	0x6d	0.073176734
136	0xa9	-0.0572109
137	0x1b	0.018626805
138	0xa8	-0.057876144
139	0xc0	-0.04191031
140	0xb2	-0.051223714
141	0xab	-0.055880412
142	0xfa	-0.003326215
143	0xcd	-0.033262152
144	0x5b	0.06120236
145	0x32	0.033927392
146	0xaf	-0.05321944
147	0xea	-0.013970103
148	0x0e	0.0099786455
149	0x7c	0.08315538
150	0x2c	0.029935936
151	0x41	0.04390604
152	0x60	0.06452857
153	0x8e	-0.07517246
154	0xa6	-0.059206627
155	0xf8	-0.0046567013
156	0xf8	-0.0046567013
157	0x9b	-0.066524304
158	0xc0	-0.04191031
159	0x4e	0.052554198
160	0x7a	0.08182489
161	0x79	0.08115965
162	0x07	0.005321944
163	0x11	0.011974374
164	0x64	0.067189544
165	0x8f	-0.07450722
166	0x41	0.04390604
167	0x12	0.012639618
168	0x88	-0.07916392
169	0x09	0.00665243
170	0x67	0.06918527
171	0x92	-0.07251149
172	0xe8	-0.01530059
173	0x58	0.059206627
174	0xf0	-0.0099786455
175	0xbc	-0.04457128
176	0xfb	-0.002660972
177	0x4d	0.051888954
178	0x74	0.07783344
179	0x8d	-0.0758377
180	0xd0	-0.03126642
181	0xd5	-0.027940206
182	0x24	0.024613991
183	0xc5	-0.038584094
184	0xa2	-0.061867602
185	0x18	0.016631076
186	0x1e	0.020622533
187	0x07	0.005321944
188	0x36	0.036588367
189	0x85	-0.08115965
190	0xc4	-0.03924934
191	0x20	0.02195302
192	0xfb	-0.002660972
193	0x79	0.08115965
194	0x6e	0.073841974
195	0x9e	-0.06452857
196	0xf0	-0.0099786455
197	0xb2	-0.051223714
198	0xc7	-0.03725361
199	0x45	0.04656701
200	0xb4	-0.049893226
201	0x59	0.05987187
202	0x43	0.045236524
203	0xc4	-0.03924934
204	0x27	0.02660972
205	0x4f	0.05321944
206	0xd6	-0.027274964
207	0xf6	-0.005987187
208	0xa1	-0.06253284
209	0xd0	-0.03126642
210	0x06	0.0046567013
211	0xfa	-0.003326215
212	0x53	0.055880412
213	0x8d	-0.0758377
214	0x30	0.03259691
215	0x08	0.005987187
216	0x34	0.03525788
217	0x79	0.08115965
218	0xcd	-0.033262152
219	0x8c	-0.07650295
220	0x61	0.06519382
221	0xea	-0.013970103
222	0x2b	0.029270694
223	0x1d	0.019957291
224	0x55	0.0572109
225	0xcb	-0.034592636
226	0x06	0.0046567013
227	0x65	0.067854784
228	0x9a	-0.067189544
229	0xf6	-0.005987187
230	0xee	-0.011309131
231	0x26	0.025944477
232	0xab	-0.055880412
233	0xeb	-0.01330486
234	0x9a	-0.067189544
235	0xb8	-0.047232255
236	0xd1	-0.03060118
237	0x80	-0.084485866
238	0x3e	0.04191031
239	0xdb	-0.023948748
240	0x78	0.080494404
241	0x8c	-0.07650295
242	0x93	-0.07184625
243	0xe6	-0.016631076
244	0xa8	-0.057876144
245	0xa9	-0.0572109
246	0x96	-0.06985052
247	0x8e	-0.07517246
248	0xf7	-0.005321944
249	0x86	-0.080494404
250	0x46	0.047232255
251	0x52	0.05521517
252	0x2d	0.03060118
253	0x8f	-0.07450722
254	0xf6	-0.005987187
255	0x02	0.001995729

model_2/block_1_/multi_head_attention/value/einsum/Einsum i1 [289, 256] scale=9.911563e-05 zero_point=-1
0	0x27	0.0039646253
1	0x1f	0.0031717
2	0x5d	0.009316869
3	0xb4	-0.007433672
4	0x6e	0.011001835
5	0x6d	0.010902719
6	0x94	-0.0106053725
7	0x5b	0.009118638
8	0x8a	-0.011596528
9	0x8c	-0.011398297
10	0xa2	-0.009217753
11	0x33	0.0051540127
12	0x9b	-0.009911562
13	0x6b	0.010704488
14	0x3c	0.006046053
15	0xa3	-0.009118638
16	0xae	-0.008028366
17	0x7e	0.012587684
18	0x19	0.0025770064
19	0x7e	0.012587684
20	0xb9	-0.006938094
21	0xdd	-0.0033699314
22	0xad	-0.008127482
23	0xc2	-0.006046053
24	0x74	0.011596528
25	0xb1	-0.007731019
26	0x46	0.0070372093
27	0xc5	-0.0057487064
28	0xb8	-0.0070372093
29	0xcf	-0.00475755
30	0xf3	-0.0011893875
31	0xcf	-0.00475755
32	0xe2	-0.0028743532
33	0xf3	-0.0011893875
34	0xbf	-0.0063434
35	0x3d	0.006145169
36	0xa7	-0.008722175
37	0x59	0.008920406
38	0x21	0.0033699314
39	0xf6	-0.00089204067
40	0x68	0.0104071405
41	0xf5	-0.0009911563
42	0x19	0.0025770064
43	0xca	-0.0052531282
44	0xe2	-0.0028743532
45	0x81	-0.012488569
46	0xa9	-0.008523944
47	0x18	0.0024778906
48	0xea	-0.0020814282
49	0x11	0.0017840813
50	0x9c	-0.009812447
51	0x78	0.011992991
52	0x8e	-0.011200066
53	0x7a	0.012191222
54	0x76	0.01179476
55	0x6a	0.0106053725
56	0x0b	0.0011893875
57	0x38	0.005649591
58	0x0f	0.00158585
59	0x7b	0.012290338
60	0x22	0.003469047
61	0x2b	0.0043610875
62	0x7d	0.012488569
63	0x3d	0.006145169
64	0xf0	-0.0014867344
65	0x55	0.008523944
66	0x00	9.911563e-05
67	0xee	-0.0016849657
68	0xaa	-0.008424828
69	0x8b	-0.011497413
70	0xd7	-0.0039646253
71	0xbc	-0.006640747
72	0x61	0.009713331
73	0x2b	0.0043610875
74	0x53	0.008325713
75	0xfa	-0.00049557816
76	0xf0	-0.0014867344
77	0x5f	0.0095151
78	0xa5	-0.008920406
79	0x8e	-0.011200066
80	0x4d	0.007731019
81	0x71	0.011299182
82	0x48	0.007235441
83	0x31	0.004955781
84	0x28	0.004063741
85	0xd9	-0.0037663938
86	0x0b	0.0011893875
87	0x65	0.010109794
88	0xec	-0.0018831969
89	0x98	-0.010208909
90	0x00	9.911563e-05
91	0xe5	-0.0025770064
92	0xd2	-0.004460203
93	0x06	0.00069380936
94	0xc9	-0.005352244
95	0x91	-0.010902719
96	0x31	0.004955781
97	0xee	-0.0016849657
98	0x52	0.008226597
99	0x41	0.006541631
100	0xca	-0.0052531282
101	0x97	-0.010308025
102	0x1e	0.0030725845
103	0xc3	-0.0059469375
104	0x26	0.0038655095
105	0xb2	-0.007631903
106	0x43	0.0067398627
107	0x71	0.011299182
108	0xe5	-0.0025770064
109	0xc5	-0.0057487064
110	0xfd	-0.00019823125
111	0x78	0.011992991
112	0x10	0.0016849657
113	0xe2	-0.0028743532
114	0x80	-0.012587684
115	0xb6	-0.007235441
116	0x72	0.011398297
117	0x35	0.005352244
118	0x09	0.0009911563
119	0x5b	0.009118638
120	0x2e	0.0046584345
121	0xcb	-0.0051540127
122	0x9c	-0.009812447
123	0x10	0.0016849657
124	0x5d	0.009316869
125	0x03	0.0003964625
126	0xf9	-0.00059469376
127	0x8c	-0.011398297
128	0xef	-0.00158585
129	0xac	-0.008226597
130	0x04	0.00049557816
131	0xef	-0.00158585
132	0x95	-0.0105062565
133	0xe5	-0.0025770064
134	0x51	0.008127482
135	0x0c	0.0012885032
136	0xdf	-0.0031717
137	0x3d	0.006145169
138	0xcc	-0.005054897
139	0xbc	-0.006640747
140	0x67	0.010308025
141	0x1a	0.002676122
142	0x28	0.004063741
143	0x21	0.0033699314
144	0x4a	0.007433672
145	0xbb	-0.0067398627
146	0xc7	-0.005550475
147	0xb1	-0.007731019
148	0x9f	-0.0095151
149	0xb6	-0.007235441
150	0xcf	-0.00475755
151	0x82	-0.012389453
152	0x5d	0.009316869
153	0x15	0.0021805437
154	0x93	-0.010704488
155	0x47	0.0071363254
156	0x19	0.0025770064
157	0xf3	-0.0011893875
158	0x52	0.008226597
159	0xd7	-0.0039646253
160	0x6d	0.010902719
161	0x41	0.006541631
162	0xa4	-0.009019522
163	0xde	-0.0032708156
164	0x08	0.00089204067
165	0x2e	0.0046584345
166	0x66	0.010208909
167	0x69	0.0105062565
168	0x21	0.0033699314
169	0xcc	-0.005054897
170	0xdf	-0.0031717
171	0xae	-0.008028366
172	0x5b	0.009118638
173	0x14	0.0020814282
174	0xde	-0.0032708156
175	0x3d	0.006145169
176	0xa1	-0.009316869
177	0xfc	-0.00029734688
178	0x55	0.008523944
179	0xcb	-0.0051540127
180	0xfd	-0.00019823125
181	0x6c	0.010803604
182	0xb5	-0.0073345564
183	0x5a	0.009019522
184	0x05	0.00059469376
185	0xf6	-0.00089204067
186	0x9c	-0.009812447
187	0xb5	-0.0073345564
188	0x77	0.011893875
189	0xc5	-0.0057487064
190	0x28	0.004063741
191	0xbe	-0.0064425156
192	0x82	-0.012389453
193	0x99	-0.010109794
194	0x65	0.010109794
195	0x54	0.008424828
196	0xa2	-0.009217753
197	0xd1	-0.004559319
198	0xb1	-0.007731019
199	0xbb	-0.0067398627
200	0x9a	-0.010010678
201	0x53	0.008325713
202	0x6c	0.010803604
203	0x20	0.0032708156
204	0x3f	0.0063434
205	0x6b	0.010704488
206	0xf7	-0.000792925
207	0x0f	0.00158585
208	0x85	-0.012092106
209	0x45	0.006938094
210	0x9f	-0.0095151
211	0x4d	0.007731019
212	0xad	-0.008127482
213	0xe7	-0.002378775
214	0x0b	0.0011893875
215	0x7a	0.012191222
216	0xec	-0.0018831969
217	0xa2	-0.009217753
218	0xb3	-0.0075327875
219	0x5e	0.009415984
220	0xf0	-0.0014867344
221	0x32	0.005054897
222	0x47	0.0071363254
223	0x09	0.0009911563
224	0x95	-0.0105062565
225	0x32	0.005054897
226	0xcd	-0.004955781
227	0x43	0.0067398627
228	0x05	0.00059469376
229	0xbe	-0.0064425156
230	0x42	0.006640747
231	0x4a	0.007433672
232	0x72	0.011398297
233	0xd9	-0.0037663938
234	0xa4	-0.009019522
235	0x24	0.0036672782
236	0x31	0.004955781
237	0xf6	-0.00089204067
238	0x2c	0.004460203
239	0x9d	-0.009713331
240	0x55	0.008523944
241	0xf1	-0.0013876187
242	0x98	-0.010208909
243	0x2d	0.004559319
244	0x3b	0.0059469375
245	0xaa	-0.008424828
246	0x50	0.008028366
247	0x9c	-0.009812447
248	0xaa	-0.008424828
249	0xeb	-0.0019823126
250	0xe0	-0.0030725845
251	0x2a	0.004261972
252	0x42	0.006640747
253	0x12	0.0018831969
254	0xee	-0.0016849657
255	0x3c	0.006046053

model_2/block_1_/multi_head_attention/query/einsum/Einsum i1 [289, 256] scale=9.911116e-05 zero_point=-1
0	0x8c	-0.011397784
1	0xb7	-0.0071360036
2	0x9f	-0.009514671
3	0xf7	-0.0007928893
4	0x57	0.008721782
5	0x62	0.009812005
6	0x50	0.008028004
7	0x35	0.0053520026
8	0x4e	0.007829782
9	0xec	-0.001883112
10	0x49	0.007334226
11	0xd5	-0.0041626687
12	0x6f	0.01110045
13	0x7a	0.012190673
14	0x3a	0.0058475584
15	0xd3	-0.004360891
16	0xfd	-0.00019822232
17	0x83	-0.012289784
18	0xad	-0.008127115
19	0x08	0.00089200045
20	0x93	-0.010704005
21	0xde	-0.0032706682
22	0x5c	0.009217338
23	0xfd	-0.00019822232
24	0xf3	-0.0011893339
25	0x21	0.0033697793
26	0xc8	-0.005451114
27	0x00	9.911116e-05
28	0x67	0.010307561
29	0x32	0.005054669
30	0x15	0.0021804455
31	0xaa	-0.008424449
32	0xdc	-0.0034688907
33	0xf4	-0.0010902227
34	0x8f	-0.01110045
35	0xf6	-0.00089200045
36	0xa1	-0.009316449
37	0x68	0.010406672
38	0xbb	-0.0067395587
39	0x84	-0.012190673
40	0x60	0.009613782
41	0x16	0.0022795566
42	0x16	0.0022795566
43	0x66	0.010208449
44	0x3a	0.0058475584
45	0x07	0.0007928893
46	0x5e	0.00941556
47	0x65	0.010109338
48	0x37	0.005550225
49	0x76	0.011794228
50	0x32	0.005054669
51	0xee	-0.0016848897
52	0xbb	-0.0067395587
53	0x94	-0.010604894
54	0x04	0.0004955558
55	0xe7	-0.0023786677
56	0x44	0.00683867
57	0xc3	-0.0059466697
58	0xa3	-0.009118226
59	0x12	0.001883112
60	0x32	0.005054669
61	0x3c	0.0060457806
62	0x37	0.005550225
63	0xfb	-0.00039644464
64	0x1d	0.0029733349
65	0x5d	0.009316449
66	0x2c	0.0044600023
67	0xec	-0.001883112
68	0x50	0.008028004
69	0xfc	-0.00029733346
70	0x20	0.0032706682
71	0x0f	0.0015857785
72	0xd0	-0.0046582245
73	0x1c	0.0028742235
74	0x25	0.003766224
75	0xca	-0.005252891
76	0x35	0.0053520026
77	0x7b	0.012289784
78	0x04	0.0004955558
79	0xe4	-0.0026760013
80	0x99	-0.010109338
81	0x2c	0.0044600023
82	0xa1	-0.009316449
83	0x1c	0.0028742235
84	0x4d	0.0077306703
85	0x83	-0.012289784
86	0x76	0.011794228
87	0x78	0.01199245
88	0xa5	-0.008920005
89	0x1c	0.0028742235
90	0x28	0.0040635574
91	0xf8	-0.0006937781
92	0xf0	-0.0014866674
93	0x1c	0.0028742235
94	0x30	0.0048564468
95	0x37	0.005550225
96	0xca	-0.005252891
97	0x5a	0.009019116
98	0x9f	-0.009514671
99	0x47	0.0071360036
100	0x38	0.005649336
101	0xe2	-0.0028742235
102	0x63	0.009911116
103	0x78	0.01199245
104	0x80	-0.012587117
105	0x8f	-0.01110045
106	0xcc	-0.005054669
107	0x52	0.008226226
108	0x63	0.009911116
109	0xec	-0.001883112
110	0x5d	0.009316449
111	0x0c	0.0012884451
112	0x9b	-0.009911116
113	0xe1	-0.0029733349
114	0xe0	-0.003072446
115	0xac	-0.008226226
116	0x61	0.0097128935
117	0x87	-0.011893339
118	0x0d	0.0013875562
119	0x56	0.008622671
120	0xb9	-0.0069377813
121	0x69	0.010505782
122	0xc3	-0.0059466697
123	0x11	0.0017840009
124	0xa5	-0.008920005
125	0xe9	-0.0021804455
126	0x9d	-0.0097128935
127	0x26	0.0038653351
128	0x56	0.008622671
129	0xb6	-0.0072351145
130	0x40	0.0064422255
131	0x7d	0.012488006
132	0xa6	-0.008820893
133	0x06	0.0006937781
134	0xc4	-0.0058475584
135	0x05	0.0005946669
136	0x61	0.0097128935
137	0x02	0.00029733346
138	0x0c	0.0012884451
139	0x03	0.00039644464
140	0x16	0.0022795566
141	0xe2	-0.0028742235
142	0xc2	-0.0060457806
143	0xc7	-0.005550225
144	0x16	0.0022795566
145	0x33	0.0051537803
146	0xe7	-0.0023786677
147	0x83	-0.012289784
148	0x34	0.005252891
149	0x45	0.0069377813
150	0x38	0.005649336
151	0xbf	-0.006343114
152	0x7d	0.012488006
153	0x84	-0.012190673
154	0xb8	-0.007036892
155	0x1b	0.0027751124
156	0x30	0.0048564468
157	0xdf	-0.003171557
158	0x14	0.0020813344
159	0xf1	-0.0013875562
160	0xac	-0.008226226
161	0x24	0.003667113
162	0xab	-0.008325337
163	0x83	-0.012289784
164	0x97	-0.010307561
165	0x2c	0.0044600023
166	0x80	-0.012587117
167	0xcd	-0.004955558
168	0xb7	-0.0071360036
169	0xb6	-0.0072351145
170	0x69	0.010505782
171	0x1a	0.0026760013
172	0xea	-0.0020813344
173	0x17	0.0023786677
174	0x7d	0.012488006
175	0x86	-0.01199245
176	0xa6	-0.008820893
177	0x59	0.008920005
178	0x83	-0.012289784
179	0xad	-0.008127115
180	0x1c	0.0028742235
181	0x1c	0.0028742235
182	0x34	0.005252891
183	0x64	0.010010227
184	0x66	0.010208449
185	0xf3	-0.0011893339
186	0xa6	-0.008820893
187	0xfa	-0.0004955558
188	0x09	0.0009911116
189	0xe6	-0.002477779
190	0x18	0.002477779
191	0x80	-0.012587117
192	0x89	-0.011695117
193	0x3c	0.0060457806
194	0x57	0.008721782
195	0xa4	-0.009019116
196	0x36	0.005451114
197	0xfc	-0.00029733346
198	0xd2	-0.0044600023
199	0x4f	0.007928893
200	0x2f	0.0047573354
201	0xd7	-0.0039644465
202	0x34	0.005252891
203	0xb6	-0.0072351145
204	0xba	-0.00683867
205	0xff	0.0
206	0x6d	0.010902228
207	0x28	0.0040635574
208	0x48	0.0072351145
209	0x5a	0.009019116
210	0xa3	-0.009118226
211	0x37	0.005550225
212	0x66	0.010208449
213	0x44	0.00683867
214	0xd4	-0.00426178
215	0xa9	-0.00852356
216	0xc5	-0.005748447
217	0x3d	0.006144892
218	0x40	0.0064422255
219	0x29	0.0041626687
220	0x56	0.008622671
221	0xb9	-0.0069377813
222	0xcd	-0.004955558
223	0x43	0.0067395587
224	0x23	0.0035680018
225	0xd1	-0.004559113
226	0x1e	0.003072446
227	0x65	0.010109338
228	0x7b	0.012289784
229	0xaf	-0.007928893
230	0xd3	-0.004360891
231	0x89	-0.011695117
232	0xb2	-0.0076315594
233	0xc8	-0.005451114
234	0x28	0.0040635574
235	0xdb	-0.0035680018
236	0x2b	0.004360891
237	0x12	0.001883112
238	0x6a	0.010604894
239	0x2e	0.0046582245
240	0x0c	0.0012884451
241	0x50	0.008028004
242	0x14	0.0020813344
243	0xe6	-0.002477779
244	0xa7	-0.008721782
245	0xdf	-0.003171557
246	0xd0	-0.0046582245
247	0xfc	-0.00029733346
248	0xa6	-0.008820893
249	0x52	0.008226226
250	0x8e	-0.011199561
251	0xa8	-0.008622671
252	0x37	0.005550225
253	0xbb	-0.0067395587
254	0x91	-0.010902228
255	0x02	0.00029733346

model_2/block_1_/multi_head_attention/key/einsum/Einsum i1 [289, 256] scale=9.9113e-05 zero_point=0
0	0xb1	-0.007829927
1	0xa4	-0.009118396
2	0x3f	0.006244119
3	0x43	0.006640571
4	0x5c	0.009118396
5	0x4a	0.007334362
6	0x01	9.9113e-05
7	0xb9	-0.007037023
8	0x32	0.00495565
9	0xd2	-0.004559198
10	0x68	0.010307752
11	0x73	0.011397995
12	0x6b	0.010605091
13	0x97	-0.010406865
14	0x61	0.009613961
15	0x9b	-0.010010413
16	0x0a	0.00099113
17	0x97	-0.010406865
18	0xd6	-0.004162746
19	0x60	0.009514848
20	0xef	-0.001684921
21	0x87	-0.011992673
22	0xf5	-0.001090243
23	0xd5	-0.004261859
24	0x1a	0.002576938
25	0xab	-0.008424605
26	0xf0	-0.001585808
27	0x16	0.002180486
28	0x17	0.002279599
29	0x4c	0.007532588
30	0x10	0.001585808
31	0xcf	-0.004856537
32	0x1b	0.002676051
33	0x52	0.008127266
34	0xca	-0.005352102
35	0x45	0.006838797
36	0x6b	0.010605091
37	0x8b	-0.011596221
38	0x5a	0.00892017
39	0x18	0.002378712
40	0x92	-0.01090243
41	0x09	0.000892017
42	0x3f	0.006244119
43	0x79	0.011992673
44	0xa0	-0.009514848
45	0xbc	-0.006739684
46	0x21	0.003270729
47	0xed	-0.001883147
48	0x10	0.001585808
49	0xad	-0.008226379
50	0x0d	0.001288469
51	0xc9	-0.005451215
52	0x86	-0.012091786
53	0xe2	-0.00297339
54	0x12	0.001784034
55	0x72	0.011298882
56	0x88	-0.01189356
57	0xac	-0.008325492
58	0x9b	-0.010010413
59	0x3c	0.00594678
60	0xc0	-0.006343232
61	0xd0	-0.004757424
62	0xd0	-0.004757424
63	0xe8	-0.002378712
64	0x8e	-0.011298882
65	0x99	-0.010208639
66	0xf6	-0.00099113
67	0xeb	-0.002081373
68	0x23	0.003468955
69	0xb8	-0.007136136
70	0x58	0.008721944
71	0x12	0.001784034
72	0x68	0.010307752
73	0x46	0.00693791
74	0x33	0.005054763
75	0xfb	-0.000495565
76	0x95	-0.010605091
77	0x7b	0.012190899
78	0x48	0.007136136
79	0x68	0.010307752
80	0x8a	-0.011695334
81	0xe5	-0.002676051
82	0xf1	-0.001486695
83	0x42	0.006541458
84	0x49	0.007235249
85	0x73	0.011397995
86	0x36	0.005352102
87	0x17	0.002279599
88	0xbf	-0.006442345
89	0xbc	-0.006739684
90	0xb4	-0.007532588
91	0x00	0.0
92	0x23	0.003468955
93	0xa3	-0.009217509
94	0x4e	0.007730814
95	0xca	-0.005352102
96	0xf2	-0.001387582
97	0xff	-9.9113e-05
98	0x0e	0.001387582
99	0xa0	-0.009514848
100	0xfb	-0.000495565
101	0x65	0.010010413
102	0x8c	-0.011497108
103	0xf3	-0.001288469
104	0x3e	0.006145006
105	0xfc	-0.000396452
106	0xc2	-0.006145006
107	0x75	0.011596221
108	0x22	0.003369842
109	0x8e	-0.011298882
110	0x61	0.009613961
111	0x1f	0.003072503
112	0xf5	-0.001090243
113	0x69	0.010406865
114	0x24	0.003568068
115	0xe9	-0.002279599
116	0x3b	0.005847667
117	0xf1	-0.001486695
118	0xa4	-0.009118396
119	0xc9	-0.005451215
120	0xd3	-0.004460085
121	0x33	0.005054763
122	0xb1	-0.007829927
123	0x72	0.011298882
124	0x8b	-0.011596221
125	0x3a	0.005748554
126	0xcc	-0.005153876
127	0xd6	-0.004162746
128	0xc3	-0.006045893
129	0x1e	0.00297339
130	0xf3	-0.001288469
131	0x1b	0.002676051
132	0xa9	-0.008622831
133	0x12	0.001784034
134	0x85	-0.012190899
135	0x3c	0.00594678
136	0x14	0.00198226
137	0x5e	0.009316622
138	0x72	0.011298882
139	0xaf	-0.008028153
140	0x01	9.9113e-05
141	0x06	0.000594678
142	0xec	-0.00198226
143	0x77	0.011794447
144	0x60	0.009514848
145	0xde	-0.003369842
146	0x6e	0.01090243
147	0x8a	-0.011695334
148	0x77	0.011794447
149	0x16	0.002180486
150	0xeb	-0.002081373
151	0x42	0.006541458
152	0x41	0.006442345
153	0x93	-0.010803317
154	0xed	-0.001883147
155	0x70	0.011100656
156	0xc1	-0.006244119
157	0x6d	0.010803317
158	0x18	0.002378712
159	0x5a	0.00892017
160	0x08	0.000792904
161	0x43	0.006640571
162	0x4a	0.007334362
163	0x17	0.002279599
164	0x4a	0.007334362
165	0x49	0.007235249
166	0x10	0.001585808
167	0x19	0.002477825
168	0x32	0.00495565
169	0x76	0.011695334
170	0x4d	0.007631701
171	0xf9	-0.000693791
172	0xcb	-0.005252989
173	0x50	0.00792904
174	0xb4	-0.007532588
175	0x93	-0.010803317
176	0xc8	-0.005550328
177	0x5e	0.009316622
178	0xf9	-0.000693791
179	0x30	0.004757424
180	0x96	-0.010505978
181	0xad	-0.008226379
182	0x73	0.011397995
183	0x09	0.000892017
184	0x58	0.008721944
185	0x16	0.002180486
186	0x14	0.00198226
187	0xd7	-0.004063633
188	0x5d	0.009217509
189	0xc6	-0.005748554
190	0x63	0.009812187
191	0xbf	-0.006442345
192	0xe2	-0.00297339
193	0x44	0.006739684
194	0x69	0.010406865
195	0xcb	-0.005252989
196	0x82	-0.012488238
197	0x40	0.006343232
198	0xd9	-0.003865407
199	0x0c	0.001189356
200	0x17	0.002279599
201	0xc1	-0.006244119
202	0xc4	-0.00594678
203	0x78	0.01189356
204	0xf8	-0.000792904
205	0x4b	0.007433475
206	0x55	0.008424605
207	0x47	0.007037023
208	0x72	0.011298882
209	0x8a	-0.011695334
210	0xa0	-0.009514848
211	0x5a	0.00892017
212	0x2a	0.004162746
213	0x63	0.009812187
214	0x54	0.008325492
215	0x1b	0.002676051
216	0x70	0.011100656
217	0x42	0.006541458
218	0x3d	0.006045893
219	0x1f	0.003072503
220	0x55	0.008424605
221	0x23	0.003468955
222	0xde	-0.003369842
223	0x6b	0.010605091
224	0xe9	-0.002279599
225	0x62	0.009713074
226	0xe3	-0.002874277
227	0x5c	0.009118396
228	0x1c	0.002775164
229	0xa7	-0.008821057
230	0x79	0.011992673
231	0x1f	0.003072503
232	0x20	0.003171616
233	0xab	-0.008424605
234	0x10	0.001585808
235	0x45	0.006838797
236	0x68	0.010307752
237	0xe5	-0.002676051
238	0x52	0.008127266
239	0xd5	-0.004261859
240	0xf0	-0.001585808
241	0x9c	-0.0099113
242	0x0d	0.001288469
243	0x10	0.001585808
244	0x22	0.003369842
245	0x8c	-0.011497108
246	0xe9	-0.002279599
247	0x40	0.006343232
248	0x41	0.006442345
249	0x4d	0.007631701
250	0x95	-0.010605091
251	0x2b	0.004261859
252	0x26	0.003766294
253	0x2c	0.004360972
254	0x93	-0.010803317
255	0xc1	-0.006244119

model_2/block_0_/dense_5/Tensordot/MatMul i1 [289, 128] scale=0.00094449765 zero_point=0
0	0x13	0.017945455
1	0x17	0.021723446
2	0x90	-0.10578374
3	0x11	0.01605646
4	0x5d	0.087838285
5	0xa7	-0.08406029
6	0xef	-0.01605646
7	0x42	0.062336843
8	0x36	0.05100287
9	0x72	0.10767273
10	0x63	0.09350526
11	0x93	-0.102950245
12	0xe9	-0.021723446
13	0x53	0.0783933
14	0x2a	0.039668903
15	0x75	0.11050622
16	0xb4	-0.07178182
17	0xbf	-0.06139235
18	0xc1	-0.05950335
19	0xc2	-0.058558855
20	0x26	0.03589091
21	0xe2	-0.028334929
22	0xc9	-0.05194737
23	0xab	-0.0802823
24	0xdb	-0.03494641
25	0x83	-0.118062206
26	0x0e	0.013222967
27	0x29	0.038724404
28	0x17	0.021723446
29	0x2f	0.04439139
30	0x1c	0.026445935
31	0x2b	0.040613398
32	0x2b	0.040613398
33	0xf8	-0.007555981
34	0x36	0.05100287
35	0x15	0.019834451
36	0x91	-0.104839236
37	0xcf	-0.046280384
38	0xc4	-0.056669857
39	0x9d	-0.09350526
40	0x07	0.0066114836
41	0x52	0.07744881
42	0x5a	0.08500479
43	0xca	-0.05100287
44	0x2f	0.04439139
45	0x8c	-0.10956173
46	0xf9	-0.0066114836
47	0x3f	0.05950335
48	0x4b	0.07083733
49	0x28	0.037779905
50	0xd3	-0.042502396
51	0x4c	0.07178182
52	0x9d	-0.09350526
53	0x1b	0.025501436
54	0x9f	-0.09161627
55	0xb2	-0.07367082
56	0xc9	-0.05194737
57	0x85	-0.11617321
58	0xcc	-0.049113877
59	0x67	0.09728326
60	0x54	0.079337806
61	0xdb	-0.03494641
62	0xb7	-0.06894833
63	0xc8	-0.05289187
64	0x21	0.031168422
65	0xcc	-0.049113877
66	0xe8	-0.022667944
67	0x6c	0.10200574
68	0xa5	-0.08594929
69	0x8c	-0.10956173
70	0x1a	0.024556939
71	0x0c	0.011333972
72	0xe6	-0.024556939
73	0xf8	-0.007555981
74	0x4e	0.07367082
75	0x3a	0.054780863
76	0x65	0.09539426
77	0xe5	-0.025501436
78	0x96	-0.10011675
79	0x8d	-0.10861723
80	0xbb	-0.06517034
81	0x08	0.007555981
82	0x39	0.053836364
83	0x40	0.06044785
84	0xeb	-0.019834451
85	0x72	0.10767273
86	0x39	0.053836364
87	0xc0	-0.06044785
88	0xa3	-0.087838285
89	0xac	-0.079337806
90	0xa6	-0.08500479
91	0xca	-0.05100287
92	0x92	-0.10389474
93	0xb6	-0.06989282
94	0x72	0.10767273
95	0x76	0.111450724
96	0xae	-0.07744881
97	0xfa	-0.005666986
98	0x00	0.0
99	0x1c	0.026445935
100	0x3a	0.054780863
101	0x68	0.098227754
102	0x3f	0.05950335
103	0x62	0.09256077
104	0xb9	-0.06705933
105	0x81	-0.1199512
106	0xc5	-0.055725362
107	0x04	0.0037779906
108	0x14	0.018889952
109	0x5b	0.08594929
110	0x6a	0.10011675
111	0x14	0.018889952
112	0x4a	0.06989282
113	0x6c	0.10200574
114	0xfb	-0.004722488
115	0xc4	-0.056669857
116	0xab	-0.0802823
117	0x63	0.09350526
118	0xbb	-0.06517034
119	0x26	0.03589091
120	0xd2	-0.04344689
121	0xc4	-0.056669857
122	0xb8	-0.06800383
123	0x07	0.0066114836
124	0x4c	0.07178182
125	0x8c	-0.10956173
126	0xfc	-0.0037779906
127	0xcc	-0.049113877
128	0x90	-0.10578374
129	0xf7	-0.008500479
130	0x83	-0.118062206
131	0x12	0.017000958
132	0x72	0.10767273
133	0x82	-0.1190067
134	0xab	-0.0802823
135	0xe6	-0.024556939
136	0x15	0.019834451
137	0x4a	0.06989282
138	0x70	0.10578374
139	0x2c	0.041557897
140	0x2b	0.040613398
141	0xf9	-0.0066114836
142	0x04	0.0037779906
143	0x15	0.019834451
144	0xa9	-0.0821713
145	0x8f	-0.10672823
146	0xec	-0.018889952
147	0x2f	0.04439139
148	0x46	0.066114835
149	0xcf	-0.046280384
150	0xaa	-0.081226796
151	0x1f	0.029279428
152	0x5f	0.089727275
153	0x74	0.10956173
154	0x49	0.06894833
155	0xfd	-0.002833493
156	0x60	0.09067178
157	0xe8	-0.022667944
158	0xf9	-0.0066114836
159	0x20	0.030223925
160	0xdc	-0.034001917
161	0xa7	-0.08406029
162	0xac	-0.079337806
163	0x68	0.098227754
164	0x01	0.00094449765
165	0x5f	0.089727275
166	0x97	-0.09917225
167	0xcb	-0.050058376
168	0x2f	0.04439139
169	0x30	0.04533589
170	0x72	0.10767273
171	0x08	0.007555981
172	0x19	0.023612441
173	0x14	0.018889952
174	0x43	0.06328134
175	0x26	0.03589091
176	0x61	0.09161627
177	0xb2	-0.07367082
178	0x68	0.098227754
179	0x27	0.03683541
180	0xaa	-0.081226796
181	0x03	0.002833493
182	0x3a	0.054780863
183	0x1e	0.028334929
184	0x0a	0.009444976
185	0x9b	-0.09539426
186	0x83	-0.118062206
187	0xf6	-0.009444976
188	0x88	-0.113339715
189	0x6e	0.10389474
190	0xcc	-0.049113877
191	0xc9	-0.05194737
192	0xd4	-0.041557897
193	0x38	0.05289187
194	0xf4	-0.011333972
195	0x42	0.062336843
196	0x91	-0.104839236
197	0xea	-0.020778948
198	0xbe	-0.062336843
199	0xad	-0.0783933
200	0xc0	-0.06044785
201	0xa3	-0.087838285
202	0x4b	0.07083733
203	0x4c	0.07178182
204	0x3b	0.055725362
205	0x07	0.0066114836
206	0xe5	-0.025501436
207	0x36	0.05100287
208	0x24	0.034001917
209	0x33	0.04816938
210	0x90	-0.10578374
211	0x7c	0.11711771
212	0xa4	-0.08689378
213	0xc2	-0.058558855
214	0xb3	-0.07272632
215	0x69	0.09917225
216	0x93	-0.102950245
217	0x14	0.018889952
218	0xca	-0.05100287
219	0x73	0.10861723
220	0x40	0.06044785
221	0x3a	0.054780863
222	0x8e	-0.10767273
223	0xa4	-0.08689378
224	0xdb	-0.03494641
225	0xc9	-0.05194737
226	0xad	-0.0783933
227	0x60	0.09067178
228	0x6d	0.102950245
229	0x8c	-0.10956173
230	0x9a	-0.09633876
231	0xba	-0.066114835
232	0x40	0.06044785
233	0x07	0.0066114836
234	0x08	0.007555981
235	0x1f	0.029279428
236	0x08	0.007555981
237	0xd7	-0.038724404
238	0x38	0.05289187
239	0x39	0.053836364
240	0xfb	-0.004722488
241	0xdb	-0.03494641
242	0x7a	0.11522871
243	0x91	-0.104839236
244	0x6a	0.10011675
245	0x5f	0.089727275
246	0x08	0.007555981
247	0xb5	-0.07083733
248	0xfa	-0.005666986
249	0x6f	0.104839236
250	0x3f	0.05950335
251	0x6e	0.10389474
252	0x0e	0.013222967
253	0x5d	0.087838285
254	0xeb	-0.019834451
255	0x65	0.09539426

model_2/block_0_/dense_4/BiasAdd/ReadVariableOp i1 [128] scale=3.9215684e-09 zero_point=0
0	0x00	0.0
1	0x00	0.0
2	0x00	0.0
3	0x00	0.0
4	0x00	0.0
5	0x00	0.0
6	0x00	0.0
7	0x00	0.0
8	0x00	0.0
9	0x00	0.0
10	0x00	0.0
11	0x00	0.0
12	0x00	0.0
13	0x00	0.0
14	0x00	0.0
15	0x00	0.0
16	0x00	0.0
17	0x00	0.0
18	0x00	0.0
19	0x00	0.0
20	0x00	0.0
21	0x00	0.0
22	0x00	0.0
23	0x00	0.0
24	0x00	0.0
25	0x00	0.0
26	0x00	0.0
27	0x00	0.0
28	0x00	0.0
29	0x00	0.0
30	0x00	0.0
31	0x00	0.0
32	0x00	0.0
33	0x00	0.0
34	0x00	0.0
35	0x00	0.0
36	0x00	0.0
37	0x00	0.0
38	0x00	0.0
39	0x00	0.0
40	0x00	0.0
41	0x00	0.0
42	0x00	0.0
43	0x00	0.0
44	0x00	0.0
45	0x00	0.0
46	0x00	0.0
47	0x00	0.0
48	0x00	0.0
49	0x00	0.0
50	0x00	0.0
51	0x00	0.0
52	0x00	0.0
53	0x00	0.0
54	0x00	0.0
55	0x00	0.0
56	0x00	0.0
57	0x00	0.0
58	0x00	0.0
59	0x00	0.0
60	0x00	0.0
61	0x00	0.0
62	0x00	0.0
63	0x00	0.0
64	0x00	0.0
65	0x00	0.0
66	0x00	0.0
67	0x00	0.0
68	0x00	0.0
69	0x00	0.0
70	0x00	0.0
71	0x00	0.0
72	0x00	0.0
73	0x00	0.0
74	0x00	0.0
75	0x00	0.0
76	0x00	0.0
77	0x00	0.0
78	0x00	0.0
79	0x00	0.0
80	0x00	0.0
81	0x00	0.0
82	0x00	0.0
83	0x00	0.0
84	0x00	0.0
85	0x00	0.0
86	0x00	0.0
87	0x00	0.0
88	0x00	0.0
89	0x00	0.0
90	0x00	0.0
91	0x00	0.0
92	0x00	0.0
93	0x00	0.0
94	0x00	0.0
95	0x00	0.0
96	0x00	0.0
97	0x00	0.0
98	0x00	0.0
99	0x00	0.0
100	0x00	0.0
101	0x00	0.0
102	0x00	0.0
103	0x00	0.0
104	0x00	0.0
105	0x00	0.0
106	0x00	0.0
107	0x00	0.0
108	0x00	0.0
109	0x00	0.0
110	0x00	0.0
111	0x00	0.0
112	0x00	0.0
113	0x00	0.0
114	0x00	0.0
115	0x00	0.0
116	0x00	0.0
117	0x00	0.0
118	0x00	0.0
119	0x00	0.0
120	0x00	0.0
121	0x00	0.0
122	0x00	0.0
123	0x00	0.0
124	0x00	0.0
125	0x00	0.0
126	0x00	0.0
127	0x00	0.0
